MoveNet/model/run_classifier_16.tflite (tflite, 28280 bytes, 6 tensors)

model/dense_2/MatMul f4 [8, 64]
-0.4581832 0.3772202 0.4414199 -0.18358633 -0.07623066 -0.13999343 -0.32588965 -0.042113554
-0.24945815 0.29065654 0.025136001 -0.19851848 0.08202608 0.49383578 2.0355743e-05 -0.0996375
-0.71440643 -0.5675873 0.07682867 0.1428057 0.011761105 0.30101737 -0.0029724003 -0.30869538
0.27509308 0.37575027 -0.5179371 -0.16442183 -0.5262717 0.10195374 -0.026611669 -0.36600384
-0.28346992 0.37572828 -0.39720488 -0.107393116 0.25350785 0.28721824 0.29971927 -0.13475353
0.07231092 0.20695832 -0.21136709 -0.5643061 -0.8443726 -0.30833605 -0.16306683 -0.626593
0.46347374 0.34797874 -0.40332595 -0.002345152 -0.3941222 0.40486252 0.027529687 -0.5011331
-0.6456208 -0.2233318 -0.4382693 0.28074303 -0.13025072 -0.3356706 0.20924228 -0.62491846
-0.9007106 -0.29210114 -0.04641979 0.09570162 0.1285053 0.048613355 -0.6088646 0.074022084
0.06716797 -0.19510771 -0.6444876 -0.44825011 0.27507555 -0.5191381 0.3876719 0.26906565
-0.65273875 -0.7265977 -0.6325915 0.22102027 0.011872931 0.2586066 -0.68904096 -0.34027168
0.28377908 0.04970027 0.25545016 -0.07705367 -0.5074629 -0.9974773 0.22423583 0.12901556
-0.6709215 -0.83913505 -0.6263717 0.198975 0.2603158 -0.10297313 -0.6689478 0.20553122
0.081044555 -0.65898794 0.28179196 0.2091036 0.198357 -0.012072902 0.061426863 -0.46724933
-0.41065076 0.14217468 0.2021149 0.19900893 -0.41045436 -0.7316855 -0.25140625 -0.2532594
0.22335912 0.13184129 -0.3937115 0.2982972 0.23249394 -0.9307639 -0.81706876 0.21006955
0.02340928 0.046094865 0.09054491 -0.19618523 0.22471295 -0.011330408 -0.28455886 -0.02027662
-0.07677344 -0.65580064 -0.51190734 -0.35198715 0.016162807 0.057708282 0.19533537 -0.13920778
-0.011802561 0.08276036 0.033428557 0.1969268 0.04882199 -0.08735033 -0.13061368 -0.21364348
0.3527439 0.29479396 -0.51869315 -0.2876419 -0.0032041036 0.121438175 0.030837378 0.2509116
-0.23661123 -0.015450898 -0.2564468 0.08325687 0.047577165 -0.51351345 -0.17677249 0.2020865
0.13393018 0.15125751 -0.15520966 0.16666886 -0.07631326 -0.09624703 0.025809735 -0.2762292
-0.47548217 0.25459996 0.22828074 0.027337437 -0.26306057 0.07024427 -0.018423365 -0.26126817
-0.23756616 0.13778584 -0.3502514 0.21998583 0.019664263 0.08430561 0.21168372 -0.17511618
-0.7964863 -0.22088954 -0.5078873 -0.17537558 -0.587914 0.28321093 -0.25691792 0.078764446
-0.8397135 0.23201548 0.47768676 0.5948749 0.30248857 -0.47703886 -0.5405176 0.33665773
-0.39603153 -0.57171226 -0.34384683 0.28307417 -0.8062911 0.2687711 -0.6354485 -0.5392864
-0.76908606 -0.39620838 0.37356114 0.56663465 -0.570271 -0.7387195 -0.6034528 -0.023100594
-0.4074913 -0.6818271 -0.3778053 -0.07416517 0.30575866 0.2588778 -0.31568208 -0.62520117
0.07985645 -0.4110254 0.4059366 0.1748177 -0.007185909 0.08859489 -0.02462777 -0.6179402
0.35547516 -0.15220505 -0.52106094 0.2608043 0.58561367 -0.51665264 -0.9399835 -0.014158919
0.17303056 -0.22634165 0.43568477 0.18416381 0.21224797 -0.41908404 -0.6183445 0.1960486
00000000: fd96 eabe 0223 c13e ca01 e23e 0efe 3bbe
00000010: d21e 9cbd 705a 0fbe 02db a6be 437f 2cbd
00000020: f571 7fbe efd0 943e 04ea cd3c 6e48 4bbe
00000030: 4afd a73d 0bd8 fc3e a0c1 aa37 bf0e ccbd
00000040: 57e3 36bf 674d 11bf 5a58 9d3d a83b 123e
00000050: a6b1 403c f31e 9a3e 9acc 42bb 520d 9ebe
00000060: 00d9 8c3e 5762 c03e 8797 04bf 325e 28be
00000070: beb9 06bf 1fcd d03d b700 dabc db64 bbbe
00000080: f822 91be 755f c03e 705e cbbe ecf0 dbbd
00000090: c8cb 813e 450e 933e ce74 993e d4fc 09be
000000a0: bf17 943d e2ec 533e 9d70 58be 5d76 10bf
000000b0: cd28 58bf 39de 9dbe fefa 26be 6668 20bf
000000c0: 6e4c ed3e 452a b23e bd80 cebe 1fb1 19bb
000000d0: 63ca c9be 244a cf3e f085 e13c 424a 00bf
000000e0: 6847 25bf 17b1 64be d564 e0be 8dbd 8f3e
000000f0: 7260 05be 04dd abbe 9c43 563e a8fa 1fbf
00000100: f894 66bf 488e 95be ad22 3ebd 36ff c33d
00000110: e596 033e cc1e 473d 8dde 1bbf e498 973d
00000120: 5c8f 893d 51ca 47be 24fd 24bf 0a81 e5be
00000130: b4d6 8c3e 3ce6 04bf ee7c c63e f9c2 893e
00000140: e319 27bf 4f02 3abf 84f1 21bf 2353 623e
00000150: af86 423c 1668 843e fd64 30bf 1738 aebe
00000160: 7e4b 913e 8392 4b3d 5dca 823e 51ce 9dbd
00000170: 17e9 01bf ac5a 7fbf 149e 653e a81c 043e
00000180: 83c1 2bbf 8ed1 56bf e559 20bf 1ac0 4b3e
00000190: 1d48 853e 94e3 d2bd 2a40 2bbf c776 523e
000001a0: b0fa a53d 6fb3 28bf 0947 903e 411f 563e
000001b0: 191e 4b3e 6ccd 45bc bc9a 7b3d 4e3b efbe
000001c0: d140 d2be 3d96 113e 35f7 4e3e ffc8 4b3e
000001d0: 1327 d2be be4f 3bbf 52b8 80be 37ab 81be
000001e0: 41b8 643e 6701 073e 8e94 c9be 69ba 983e
000001f0: e412 6e3e 8b46 6ebf 6b2b 51bf 791c 573e
00000200: d2c4 bf3c f8cd 3c3d 9c6f b93d c8e4 48be
00000210: 271b 663e 2da3 39bc b3b1 91be 271b a6bc
00000220: 653b 9dbd 8de2 27bf 5c0c 03bf a937 b4be
00000230: dd67 843c 855f 6c3d ff05 483e 7c8c 0ebe
00000240: 875f 41bc 437e a93d 62ec 083d 2ea7 493e
00000250: 91f9 473d bbe4 b2bd 98bf 05be 5bc5 5abe
00000260: d99a b43e 3cef 963e 13c9 04bf cd45 93be
00000270: f0fb 51bb 94b4 f83d ab9e fc3c 7c77 803e
00000280: 374a 72be c325 7dbc ff4c 83be 9482 aa3d
00000290: 46e0 423d 9e75 03bf d903 35be c3ef 4e3e
000002a0: fe24 093e 40e3 1a3e 48ef 1ebe 3eab 2a3e
000002b0: 204a 9cbd 2a1d c5bd f06e d33c ea6d 8dbe
000002c0: 6672 f3be ed5a 823e 6dc2 693e c3f2 df3c
000002d0: e0af 86be 3adc 8f3d 99ec 96bc f1c4 85be
000002e0: 8b44 73be bb17 0d3e 2754 b3be f743 613e
000002f0: f316 a13c 6ba8 ac3d 9ec3 583e a851 33be
00000300: 87e6 4bbf de30 62be e704 02bf a895 33be
00000310: 8881 16bf 0601 913e bf8a 83be 414f a13d
00000320: 77f7 56bf 7795 6d3e 5c93 f43e b949 183f
00000330: c8df 9a3e 703e f4be 5d5f 0abf 675e ac3e
00000340: a5c4 cabe bc5b 12bf b10c b0be 19ef 903e
00000350: 1869 4ebf 5e9c 893e c1ac 22bf ac0e 0abf
00000360: d3e2 44bf d3db cabe 6843 bf3e f80e 113f
00000370: 48fd 11bf b91c 3dbf e27b 1abf 753d bdbc
00000380: b3a2 d0be 398c 2ebf b26f c1be e9e3 97bd
00000390: 668c 9c3e a28b 843e 15a1 a1be 2f0d 20bf
000003a0: c78b a33d ec71 d2be ecd6 cf3e 6903 333e
000003b0: c677 ebbb 3d71 b53d 2dc0 c9bc 5431 1ebf
000003c0: d700 b63e a4db 1bbe 4064 05bf 2488 853e
000003d0: c7ea 153f 5943 04bf c2a2 70bf d0fa 67bc
000003e0: ec2e 313e 1bc6 67be 1312 df3e 7095 3c3e
000003f0: 8857 593e 2f92 d6be d34b 1ebf f7c0 483e

model/dense/BiasAdd/ReadVariableOp f4 [128]
-0.005736147 0.030079713 0.0065326137 0.030494045 -0.012182852 0.016902013 -0.011486058 0.0
0.0 -0.009165424 -0.0038501162 0.0 0.0 -0.007084147 0.030933551 0.0
-0.0060068006 -0.007050422 0.0 0.035293374 0.0 0.01799749 0.045409806 0.0
0.01994462 0.009629486 0.032781005 -0.0076822233 0.06116964 -0.029603504 -0.010489533 0.0114814155
0.00085543806 0.018962976 0.0 0.014196314 0.015963204 0.047372356 0.00019927238 0.039019477
0.008307452 0.022912633 0.0018835645 0.058137376 0.0 0.052827314 0.018597987 0.0
0.022005603 0.029231627 0.02673401 0.040256973 -0.023896718 0.0 0.055618882 0.0
0.017694965 -0.008578508 0.02982653 0.020341137 0.0060074655 0.042571027 0.0063961055 0.04049123
0.006011415 -0.012511146 0.04026223 0.010886435 0.038905013 0.0 0.027663622 -0.01451779
0.06066878 0.046626437 0.0 0.033599447 -0.0136890765 0.035455186 0.019540373 0.03967136
0.063197345 -0.013186574 0.0 0.0 0.009495686 0.0 -0.0017168279 0.032704294
0.034059506 0.044465713 0.02952672 -0.01555588 0.051620614 0.038069002 0.0 -0.017418867
-0.02280752 0.01617088 -0.024665432 0.038897593 0.028565997 -0.04910364 0.0182205 -0.029452417
0.0024122528 0.0 -0.0031843353 0.026991958 0.07647262 0.0039771334 -0.0011085558 -0.012218459
0.050648894 0.0 -0.0063477955 0.0 0.00078757794 0.0 0.050571717 0.058803264
0.0027248452 0.005254854 0.022200715 0.02750847 0.0077861003 -0.01183761 0.010183476 0.017716631
00000000: 4af6 bbbb bb69 f63c 890f d63b a6ce f93c
00000010: 969a 47bc 1776 8a3c 0530 3cbc 0000 0000
00000020: 0000 0000 932a 16bc 3b52 7cbb 0000 0000
00000030: 0000 0000 2222 e8bb 5c68 fd3c 0000 0000
00000040: b2d4 c4bb 3a07 e7bb 0000 0000 c98f 103d
00000050: 0000 0000 796f 933c a2ff 393d 0000 0000
00000060: e662 a33c fec4 1d3c 6045 063d 29bb fbbb
00000070: 048d 7a3d 0c83 f2bc 4adc 2bbc 8c1c 3c3c
00000080: 7a3f 603a 3e58 9b3c 0000 0000 a897 683c
00000090: 44c5 823c 8409 423d c6f3 5039 e3d2 1f3d
000000a0: fb1b 083c 46b3 bb3c f0e1 f63a 7521 6e3d
000000b0: 0000 0000 7461 583d ce5a 983c 0000 0000
000000c0: 1845 b43c 2a77 ef3c 4801 db3c 7fe4 243d
000000d0: 0dc3 c3bc 0000 0000 a0d0 633d 0000 0000
000000e0: 08f5 903c df8c 0cbc c456 f43c 75a2 a63c
000000f0: 46da c43b f55e 2e3d 6c96 d13b 22da 253d
00000100: 67fb c43b 8dfb 4cbc 02ea 243d 055d 323c
00000110: dd5a 1f3d 0000 0000 d29e e23c 06dc 6dbc
00000120: d47f 783d 5dfb 3e3d 0000 0000 939f 093d
00000130: 2648 60bc 7539 113d 2213 a03c 707e 223d
00000140: 9c6d 813d 800c 58bc 0000 0000 0000 0000
00000150: cb93 1b3c 0000 0000 2f07 e1ba f0f4 053d
00000160: fb81 0b3d ae21 363d 05e2 f13c 17de 7ebc
00000170: 2370 533d 3eee 1b3d 0000 0000 03b2 8ebc
00000180: d6d6 babc cb78 843c 290f cabc 1553 1f3d
00000190: 3d03 ea3c e620 49bd 2843 953c 3246 f1bc
000001a0: e316 1e3b 0000 0000 48b0 50bb 3d1e dd3c
000001b0: ad9d 9c3d 9d52 823b f64c 91ba ee2f 48bc
000001c0: 3775 4f3d 0000 0000 2b01 d0bb 0000 0000
000001d0: 7675 4e3a 0000 0000 4a24 4f3d b1db 703d
000001e0: 5193 323b e930 ac3b 46de b53c 7159 e13c
000001f0: 8b22 ff3b 89f2 41bc 98d8 263c 7822 913c

model/dense_2/BiasAdd/ReadVariableOp f4 [8]
-0.13158487 0.06072252 0.08368955 -0.18534634 0.11813146 0.04046269 -0.07133643 -0.061494686
00000000: 2fbe 06be 2db8 783d 6d65 ab3d 6ecb 3dbe
00000010: e8ee f13d 35bc 253d d618 92bd dae1 7bbd

model/dense_1/BiasAdd/ReadVariableOp f4 [64]
0.117734 0.037824597 0.07735293 0.032670774 0.19135912 0.04711338 0.046881516 0.124521874
0.12415085 -0.0259179 0.007946411 -0.09351106 0.09715968 0.090859674 0.077131286 0.0720577
0.15763041 0.192094 0.051114913 0.07645097 0.121309176 -0.006577646 0.08800493 0.072042294
0.07598308 0.08969794 0.033838075 -0.06833147 0.14103806 0.16553885 0.09058844 0.056989007
0.06988305 0.06100784 0.09961531 -0.01940574 0.021313796 -0.015341062 0.098880306 0.08904565
0.089457236 0.13430896 0.056105338 0.0809946 0.07823798 0.060457263 0.10264864 0.11553699
0.026757656 0.14426555 0.1117724 0.108376816 -0.12272578 0.03161634 0.14513916 0.03640221
0.044895843 -0.032954093 -0.10274582 0.10103454 0.10201677 0.17348115 0.080747046 0.08720971
00000000: 861e f13d f7ed 1a3d 376b 9e3d cad1 053d
00000010: a5f3 433e f6f9 403d d506 403d 5305 ff3d
00000020: cd42 fe3d c751 d4bc aa31 023c ba82 bfbd
00000030: a8fb c63d a314 ba3d 02f7 9d3d fd92 933d
00000040: de69 213e 4ab4 443e df5d 513d 5392 9c3d
00000050: f270 f83d 4b89 d7bb ee3b b43d e98a 933d
00000060: 049d 9b3d 8eb3 b73d cb99 0a3d 5ff1 8bbd
00000070: 486c 103e 0483 293e 6f86 b93d 4e6d 693d
00000080: d81e 8f3d 5be3 793d 1d03 cc3d c9f8 9ebc
00000090: 459a ae3c 1459 7bbc c281 ca3d 915d b63d
000000a0: 5b35 b73d 4a88 093e b6ce 653d 7fe0 a53d
000000b0: 3c3b a03d 09a2 773d 7339 d23d a89e ec3d
000000c0: df32 db3c 59ba 133e eee8 e43d aaf4 dd3d
000000d0: a757 fbbd 2380 013d 5c9f 143e 7c1a 153d
000000e0: b4e4 373d dffa 06bd 676c d2bd 32eb ce3d
000000f0: 2bee d03d 0ba5 313e b55e a53d 019b b23d

model/dense/MatMul i1 [128, 34] scale=0.008408797 zero_point=0
-0.44566625 -0.15135835 -0.19340234 -0.008408797 -0.45407504 -0.12613195 -0.46248382 0.10931436
-0.38680467 -0.050452784 -0.35316947 -0.067270376 -0.23544632 -0.15976714 0.033635188 0.17658474
0.17658474 0.042043984 0.42884865 0.5129366 0.016817594 0.6558862 0.09249677 -0.26067272
-0.042043984 0.2858991 0.47089264 0.26067272 -0.025226392 0.14294955 0.042043984 -0.025226392
-0.016817594 -0.042043984 0.10931436 -0.13454075 0.3111255 -0.11772316 0.20181113 0.008408797
0.12613195 0.033635188 0.33635187 -0.033635188 -0.14294955 -0.075679176 0.19340234 -0.19340234
-0.16817594 0.15135835 0.2858991 0.26067272 0.5045278 0.7988357 0.70633894 0.8240621
-0.38680467 0.3111255 0.38680467 -0.33635187 -0.08408797 0.12613195 0.17658474 0.17658474
-0.23544632 0.3111255 -0.10931436 0.15976714 -0.42884865 -0.016817594 -0.43725744 -0.11772316
-0.44566625 -0.13454075 -0.40362227 0.067270376 -0.580207 0.18499354 -0.5633894 0.15976714
-0.36157826 0.10090557 -0.17658474 -0.10931436 -0.41203105 0.067270376 -0.2522639 0.008408797
-0.15976714 0.025226392 0.075679176 -0.33635187 -0.16817594 0.3447607 0.33635187 -0.025226392
-0.16817594 -0.042043984 0.26067272 -0.033635188 0.042043984 0.20181113 -0.3111255 0.23544632
-0.09249677 0.067270376 -0.23544632 0.20181113 -0.2522639 0.067270376 -0.26067272 0.09249677
-0.22703752 -0.05886158 0.0 -0.10931436 -0.37839586 -0.21021992 0.48771024 -0.3111255
0.16817594 -0.80724454 0.47089264 -0.5465718 -0.16817594 -0.6054334 0.09249677 0.48771024
0.15976714 -0.016817594 -0.38680467 -0.12613195 0.20181113 -0.20181113 -0.13454075 0.09249677
-0.008408797 0.15976714 0.08408797 0.17658474 -0.10090557 -0.15976714 -0.05886158 0.15135835
0.016817594 0.042043984 -0.09249677 -0.11772316 0.13454075 -0.17658474 -0.09249677 0.033635188
0.15135835 0.025226392 -0.15976714 0.10931436 -0.18499354 -0.13454075 0.042043984 -0.08408797
0.033635188 0.08408797 0.11772316 0.15976714 -0.14294955 -0.067270376 -0.050452784 -0.05886158
0.11772316 0.033635188 -0.21862872 0.21862872 -0.016817594 0.20181113 -0.26067272 0.025226392
-0.3279431 -0.12613195 -0.42043984 -0.15135835 0.10090557 -0.12613195 -0.38680467 0.14294955
-0.41203105 -0.14294955 -0.40362227 -0.23544632 -0.37839586 -0.7904269 -0.2522639 -0.7483829
0.3279431 -0.016817594 -0.41203105 0.13454075 -0.05886158 0.15976714 0.05886158 0.18499354
0.0 -0.15135835 0.08408797 -0.15976714 -0.33635187 -0.075679176 -0.067270376 -0.13454075
-0.067270376 -0.08408797 -0.39521345 -0.033635188 -0.35316947 -0.09249677 -0.23544632 0.033635188
-0.31953427 0.050452784 0.09249677 -0.15976714 0.2774903 -0.11772316 -0.075679176 -0.622251
-0.41203105 -0.41203105 0.31953427 -0.73997414 -0.21862872 0.7652005 0.075679176 0.10090557
-0.41203105 0.008408797 0.2858991 -0.52134544 0.016817594 -0.025226392 0.12613195 0.15135835
-0.12613195 -0.09249677 0.0 0.025226392 -0.067270376 0.042043984 0.10090557 0.11772316
0.13454075 0.09249677 -0.09249677 -0.13454075 0.08408797 0.016817594 0.09249677 -0.050452784
00000000: cbee e9ff caf1 c90d d2fa d6f8 e4ed 0415
00000010: 1505 333d 024e 0be1 fb22 381f fd11 05fd
00000020: fefb 0df0 25f2 1801 0f04 28fc eff7 17e9
00000030: ec12 221f 3c5f 5462 d225 2ed8 f60f 1515
00000040: e425 f313 cdfe ccf2 cbf0 d008 bb16 bd13
00000050: d50c ebf3 cf08 e201 ed03 09d8 ec29 28fd
00000060: ecfb 1ffc 0518 db1c f508 e418 e208 e10b
00000070: e5f9 00f3 d3e7 3adb 14a0 38bf ecb8 0b3a
00000080: 13fe d2f1 18e8 f00b ff13 0a15 f4ed f912
00000090: 0205 f5f2 10eb f504 1203 ed0d eaf0 05f6
000000a0: 040a 0e13 eff8 faf9 0e04 e61a fe18 e103
000000b0: d9f1 ceee 0cf1 d211 cfef d0e4 d3a2 e2a7
000000c0: 27fe cf10 f913 0716 00ee 0aed d8f7 f8f0
000000d0: f8f6 d1fc d6f5 e404 da06 0bed 21f2 f7b6
000000e0: cfcf 26a8 e65b 090c cf01 22c2 02fd 0f12
000000f0: f1f5 0003 f805 0c0e 100b f5f0 0a02 0bfa

model/dense_1/MatMul i1 [64, 128] scale=0.0068953247 zero_point=0
-0.062057924 0.0068953247 -0.11722052 -0.22754571 -0.0827439 -0.17927845 0.12411585 0.027581299
0.013790649 -0.020685975 0.13790649 -0.13790649 -0.020685975 0.13790649 0.255127 -0.110325195
-0.089639224 -0.04137195 0.068953246 -0.17927845 -0.068953246 0.56541663 0.10342987 -0.15169714
0.13101117 0.31718493 0.12411585 -0.13790649 0.24133636 -0.110325195 -0.17238311 0.020685975
-0.26202235 0.28270832 -0.13790649 0.13790649 0.23444104 0.48956805 0.28270832 -0.15169714
-0.1654878 -0.26202235 0.29649895 0.020685975 0.0827439 -0.034476623 0.14480183 0.0
-0.055162597 -0.068953246 0.055162597 0.013790649 0.19996442 0.0 0.28270832 -0.034476623
0.089639224 -0.020685975 -0.068953246 -0.255127 0.0827439 0.255127 -0.255127 -0.17238311
0.062057924 -0.0827439 0.5240447 0.027581299 0.28270832 0.11722052 0.3033943 0.04137195
0.18617377 -0.28270832 0.0 0.3930335 0.17238311 -0.26891765 0.09653454 0.20685974
0.20685974 -0.17927845 0.04137195 -0.020685975 0.020685975 -0.17927845 0.062057924 0.26891765
0.40682414 -0.11722052 -0.027581299 -0.034476623 0.034476623 -0.31718493 -0.07584857 0.14480183
0.089639224 0.0 0.12411585 0.3654522 0.18617377 -0.19996442 -0.15169714 -0.0068953247
0.11722052 0.013790649 -0.19996442 0.07584857 0.21375507 0.1654878 0.10342987 0.13101117
-0.20685974 0.1654878 -0.12411585 -0.14480183 0.034476623 -0.10342987 0.39992884 0.18617377
-0.04137195 -0.19996442 0.12411585 -0.3378709 -0.11722052 0.15169714 0.027581299 -0.034476623
-0.027581299 -0.17927845 -0.110325195 0.5171493 0.10342987 0.15169714 0.13790649 0.027581299
0.0068953247 -0.14480183 0.0827439 0.110325195 0.15169714 -0.10342987 0.10342987 0.13101117
0.17238311 0.23444104 0.12411585 0.0 -0.12411585 0.19996442 0.44130078 0.04137195
0.39992884 -0.034476623 0.12411585 -0.10342987 0.1654878 -0.29649895 -0.28960365 -0.020685975
-0.15169714 0.26202235 -0.11722052 0.07584857 0.0068953247 0.0068953247 0.0068953247 0.32408026
-0.31718493 -0.34476623 -0.068953246 -0.068953246 -0.15169714 0.13790649 0.23444104 0.07584857
0.11722052 0.55162597 0.062057924 0.04826727 -0.055162597 0.09653454 0.055162597 0.15859246
-0.17927845 -0.15859246 0.74469507 -0.04137195 -0.034476623 0.53094 -0.18617377 -0.38613817
-0.3378709 0.13101117 0.48956805 0.13101117 -0.034476623 0.17238311 -0.04137195 -0.32408026
0.12411585 0.38613817 -0.04137195 0.089639224 0.1654878 0.068953246 -0.07584857 0.11722052
0.37234753 0.17927845 -0.17927845 0.0 -0.26891765 -0.0068953247 -0.26202235 0.28270832
0.04137195 0.3585569 0.22065039 0.28270832 -0.27581298 0.062057924 0.15859246 0.28270832
-0.11722052 -0.14480183 0.0827439 -0.055162597 0.28960365 0.07584857 0.510254 0.13790649
-0.055162597 0.034476623 -0.19996442 -0.13101117 0.068953246 -0.020685975 -0.19996442 0.027581299
0.07584857 0.15859246 -0.35166156 -0.13101117 0.055162597 -0.062057924 -0.027581299 0.0068953247
-0.24133636 0.027581299 0.6136839 0.3930335 -0.020685975 -0.12411585 0.20685974 0.29649895
00000000: f701 efdf f4e6 1204 02fd 14ec fd14 25f0
00000010: f3fa 0ae6 f652 0fea 132e 12ec 23f0 e703
00000020: da29 ec14 2247 29ea e8da 2b03 0cfb 1500
00000030: f8f6 0802 1d00 29fb 0dfd f6db 0c25 dbe7
00000040: 09f4 4c04 2911 2c06 1bd7 0039 19d9 0e1e
00000050: 1ee6 06fd 03e6 0927 3bef fcfb 05d2 f515
00000060: 0d00 1235 1be3 eaff 1102 e30b 1f18 0f13
00000070: e218 eeeb 05f1 3a1b fae3 12cf ef16 04fb
00000080: fce6 f04b 0f16 1404 01eb 0c10 16f1 0f13
00000090: 1922 1200 ee1d 4006 3afb 12f1 18d5 d6fd
000000a0: ea26 ef0b 0101 012f d2ce f6f6 ea14 220b
000000b0: 1150 0907 f80e 0817 e6e9 6cfa fb4d e5c8
000000c0: cf13 4713 fb19 fad1 1238 fa0d 180a f511
000000d0: 361a e600 d9ff da29 0634 2029 d809 1729
000000e0: efeb 0cf8 2a0b 4a14 f805 e3ed 0afd e304
000000f0: 0b17 cded 08f7 fc01 dd04 5939 fdee 1e2b
