MoveNet/model/run_classifier (2).tflite (tflite, 28280 bytes, 6 tensors)

model/dense_2/MatMul f4 [8, 64]
0.023602609 0.013491948 -0.09931998 0.30706254 0.11640931 -0.16906372 -0.29138967 0.03732748
-0.11348842 0.028808607 -0.43738118 0.14201918 0.058163855 -0.43247956 0.020647435 0.35921305
-0.352702 0.26924992 0.40889907 0.22631852 0.2212613 0.25607818 -0.03623925 -0.267918
0.27197826 0.16099106 -0.42923686 -0.73824376 -0.19220074 -0.51780725 -0.059719544 0.050276507
0.26617283 -0.48043492 0.38143405 0.38138604 -0.391215 0.1804049 -0.36208785 0.0627681
-0.77243984 0.059263278 0.39959642 0.033931218 -0.7663592 0.03156455 0.2849394 -0.1379286
-0.07457923 -0.19771038 -0.25869948 -0.8913091 -0.6488833 -0.19235389 -0.0877752 -0.101090245
0.14192349 -0.7277526 0.11536089 -0.48370785 -0.28177673 -0.051369198 -0.1521272 -0.057049762
0.35547173 -0.21788968 0.10452195 0.1302861 0.074070886 0.097556666 -0.05739724 0.2198017
0.07576099 0.1298017 0.17090511 -0.6476832 0.22508052 0.27824283 -0.6533556 0.17922236
0.014282468 -0.053992976 -0.7080349 0.22348952 0.118248135 0.18218146 -0.40760344 0.23439962
0.23848794 -0.3482312 -0.38390318 0.1908332 0.19943182 -0.8601499 -0.17048106 0.2943936
0.08725841 -0.3803921 0.0694442 0.26260927 -0.56928587 -0.6826398 -0.3943459 0.15979612
-0.079405695 0.2644063 -0.34532687 -0.3055269 0.05369532 -0.4543212 0.09899273 0.047724005
-0.9414599 0.29618326 0.20678703 -0.027012018 -0.8162619 -0.034447867 -0.5496539 0.32130995
0.2613732 -0.24232753 -0.56859493 -0.7546022 -0.53286016 -0.7947422 0.08722137 -0.17830302
-0.18071218 -0.039562784 -0.09505159 0.23848401 0.20510092 0.055101037 -0.1397639 -0.07130746
0.24296065 0.03189966 -0.24678072 -0.06304459 0.06846041 0.21581863 0.061300095 -0.2445142
-0.42140082 -0.3311412 0.07884389 0.18950036 -0.19757816 -0.066982284 -0.13690855 0.19027412
0.18220931 0.27072847 -0.14800285 0.1721743 -0.13838923 -0.2246796 0.07357311 0.18780874
0.08845215 -0.86371684 0.37072825 -0.055953976 -0.40344414 0.2271726 -0.056411717 0.1945711
-0.26244766 -0.0030214656 0.110172845 -0.22160055 -0.27151754 -0.29832637 -0.033378664 0.014805859
-0.10888591 0.13301066 0.122921675 -0.3315121 -0.43289638 -0.20020147 -0.061369937 -0.40777344
-0.034098506 -0.19840096 0.13565639 0.06840841 -0.28946424 -0.0091246925 -0.023336234 -0.06657983
0.4138138 -0.9640143 -0.5521857 0.101345375 -0.10861689 0.13197915 -0.9622527 0.28585884
0.051902212 0.18252997 0.29417518 -0.6611343 0.22571437 -0.20370154 -0.7062971 0.4085692
0.06407081 0.31128964 -0.6086999 0.18269174 -0.20408629 0.31481087 -0.28467557 0.055109724
0.27299505 -0.8958513 0.60469127 -0.30724034 0.24563724 -0.36219302 -1.0381486 0.28193018
0.08720937 0.3492131 -0.0044750622 -0.5139168 -0.14700991 -0.4712811 0.61771417 -0.75339
0.11603549 0.33530313 -0.22743328 0.13450372 0.104593426 -0.25249892 -0.059159342 0.08574579
-0.565261 0.31643656 -0.6847449 0.08509247 -0.44288176 -0.6203589 -0.6134364 0.39648515
0.3038325 -0.06126018 -0.9928052 -0.2723004 -0.24788752 -0.4544667 -0.9545433 -1.058223
00000000: 425a c13c 550d 5d3c 4668 cbbd 4d37 9d3e
00000010: 0168 ee3d 0a1f 2dbe 0731 95be b3e4 183d
00000020: 9e6c e8bd 0700 ec3c 6df0 dfbe 7a6d 113e
00000030: 393d 6e3d f66d ddbe cf24 a93c c6ea b73e
00000040: 5b95 b4be 20db 893e 385b d13e 0bc0 673e
00000050: 5292 623e ae1c 833e 9c6f 14bd 8c2c 89be
00000060: bc40 8b3e d7da 243e efc4 dbbe 8bfd 3cbf
00000070: 45d0 44be 048f 04bf 7b9c 74bd bdee 4d3d
00000080: ce47 883e 91fb f5be 534b c33e 0845 c33e
00000090: 554d c8be 10bc 383e 9463 b9be 908c 803d
000000a0: 9ebe 45bf 0dbe 723d e797 cc3e 76fb 0a3d
000000b0: 1e30 44bf d449 013d 94e3 913e 283d 0dbe
000000c0: ffbc 98bd 9774 4abe 4274 84be d52c 64bf
000000d0: 371d 26bf 6bf8 44be 7cc3 b3bd 6708 cfbd
000000e0: 6454 113e ff4d 3abf 5542 ec3d 8ea8 f7be
000000f0: 0a45 90be 8268 52bd 3cc7 1bbe 03ad 69bd
00000100: 6400 b63e 791e 5fbe 9b0f d63d b869 053e
00000110: 7ab2 973d cacb c73d 5e19 6bbd b213 613e
00000120: 9428 9b3d bdea 043e c001 2f3e 91ce 25bf
00000130: 827b 663e d875 8e3e 5042 27bf 1186 373e
00000140: 0301 6a3c bd27 5dbd c641 35bf 70da 643e
00000150: 142c f23d c78d 3a3e 66b1 d0be 7406 703e
00000160: 2f36 743e 5c4b b2be f58e c4be c769 433e
00000170: db37 4c3e c932 5cbf 9692 2ebe c2ba 963e
00000180: 8ab4 b23d c1c2 c2be c338 8e3d b974 863e
00000190: b8bc 11bf 7bc1 2ebf b5e7 c9be 98a1 233e
000001a0: 749f a2bd 4360 873e afce b0be 066e 9cbe
000001b0: a0ef 5b3d ca9c e8be b3bc ca3d 3f7a 433d
000001c0: 8403 71bf 55a5 973e fbbf 533e 4f48 ddbc
000001d0: 8af6 50bf 3519 0dbd 1eb6 0cbf bd82 a43e
000001e0: b5d2 853e b524 78be 708f 11bf 9c2d 41bf
000001f0: 8669 08bf 3a74 4bbf 1ea1 b23d 1195 36be
00000200: 9d0c 39be 960c 22bd 68aa c2bd 2735 743e
00000210: fa05 523e a0b1 613d 451e 0fbe a509 92bd
00000220: adca 783e 38a9 023d 16b4 7cbe 861d 81bd
00000230: f934 8c3d 8fff 5c3e cf15 7b3d ee61 7abe
00000240: d9c1 d7be 578b a9be e878 a13d 620c 423e
00000250: ee51 4abe 022e 89bd c131 0cbe 38d7 423e
00000260: 1495 3a3e ec9c 8a3e 0f8e 17be 764e 303e
00000270: e8b5 0dbe 6912 66be 80ad 963d ef50 403e
00000280: 6726 b53d 8c1c 5dbf 18d0 bd3e ff2f 65bd
00000290: 3b90 cebe ef9f 683e f90f 67bd a53d 473e
000002a0: 8a5f 86be c803 46bb 4da2 e13d 41eb 62be
000002b0: 5904 8bbe 3cbe 98be 11b8 08bd 4694 723c
000002c0: 93ff debd f233 083e 5cbe fb3d f4bb a9be
000002d0: 98a4 ddbe 9d01 4dbe 0b5f 7bbd aec7 d0be
000002e0: e0aa 0bbd 9f29 4bbe 82e9 0a3e b519 8c3d
000002f0: a834 94be bc7f 15bc a12b bfbc 025b 88bd
00000300: 67df d33e a4c9 76bf 0b5c 0dbf 2a8e cf3d
00000310: 8872 debd 8b25 073e 3156 76bf 175c 923e
00000320: 6a97 543d 23e9 3a3e 219e 963e 1940 29bf
00000330: ab21 673e 2397 50be e3cf 34bf fb2f d13e
00000340: 8f37 833d 5b61 9f3e c2d3 1bbf 8b13 3b3e
00000350: fffb 50be e42e a13e ffc0 91be bcba 613d
00000360: 02c6 8b3e 8356 65bf 0ccd 1a3f 9b4e 9dbe
00000370: 5488 7b3e 5d71 b9be 0ee2 84bf 2759 903e
00000380: d49a b23d 0fcc b23e 8ba3 92bb 0d90 03bf
00000390: c489 16be c24b f1be 8422 1e3f 2bde 40bf
000003a0: 04a4 ed3d daac ab3e 45e4 68be 58bb 093e
000003b0: 1435 d63d 8a47 81be 1151 72bd 7d9b af3d
000003c0: f2b4 10bf f903 a23e 714b 2fbf f644 ae3d
000003d0: 66c1 e2be d7cf 1ebf 2b0a 1dbf 1a00 cb3e
000003e0: ef8f 9b3e f4eb 7abd 7b28 7ebf f56a 8bbe
000003f0: 3ad6 7dbe dcaf e8be f35c 74bf da73 87bf

model/dense/BiasAdd/ReadVariableOp f4 [128]
0.08600236 0.0 0.0732732 0.06520347 0.0 0.0385082 0.078439176 -0.025084045
0.06720158 0.023228707 0.04975282 0.041153736 0.044529725 0.012440313 -0.0035562278 0.02180166
0.0 0.015461206 0.011950357 0.006875812 0.0 0.0 0.032503314 0.0
0.0 0.0 0.0132597005 0.0 0.0 0.021967692 -0.014997295 0.07894916
0.0 0.03236891 0.04082116 0.0 0.04579211 0.031494968 0.07938252 0.0079852985
0.0 0.0 0.0 0.042733327 -0.0072914623 0.035386648 0.04999099 0.03850077
-0.032959286 0.031880483 -0.00111196 0.004631541 0.020449737 0.0 -0.000984144 0.07375115
0.07330599 0.01983226 -0.008847044 -0.0051249694 0.007906373 -0.010526389 -0.02256728 0.025199678
0.022863721 -0.013087888 0.029087761 0.050097242 0.036058858 0.007016068 -0.0021403339 0.054019567
-0.016233146 0.0 0.026675742 -0.0117618805 0.0 -0.009619541 0.003098115 0.010352531
0.016354678 0.011583223 0.0 0.0 0.06153503 0.030383557 0.0026400099 0.038647223
0.055250753 0.05171769 0.0027240813 0.0 0.0 0.015832014 -0.0023678616 0.049723312
-0.008206154 0.059760403 0.0 -0.03645636 0.041400254 -0.02014978 0.071373954 0.038669188
0.023126839 0.040235497 0.009313368 -0.0060052797 0.0 0.026011337 0.0 0.0
-0.012142194 0.0 0.05515511 0.0154492995 -0.0142327575 -0.0022717884 0.06344724 -0.002780143
-0.016659012 -0.0032618672 0.06914056 0.058550227 0.08278914 0.04713785 0.05649838 0.0
00000000: 0122 b03d 0000 0000 4210 963d 6689 853d
00000010: 0000 0000 c6ba 1d3d b8a4 a03d 0e7d cdbc
00000020: fba0 893d 214a be3c 9dc9 4b3d d290 283d
00000030: cd64 363d 74d2 4b3c 9a0f 69bb 6599 b23c
00000040: 0000 0000 0051 7d3c 6ecb 433c 7e4e e13b
00000050: 0000 0000 0000 0000 3222 053d 0000 0000
00000060: 0000 0000 0000 0000 373f 593c 0000 0000
00000070: 0000 0000 97f5 b33c 37b7 75bc 19b0 a13d
00000080: 0000 0000 4395 043d 1734 273d 0000 0000
00000090: 8290 3b3d de00 013d 4d93 a23d c5d4 023c
000000a0: 0000 0000 0000 0000 0000 0000 2409 2f3d
000000b0: 38ed eebb 97f1 103d 5ac3 4c3d fcb2 1d3d
000000c0: 5100 07bd 1c95 023d 30bf 91ba 2fc4 973b
000000d0: 3586 a73c 0000 0000 65fe 80ba d80a 973d
000000e0: 7321 963d 4477 a23c 31f3 10bc 5cef a7bb
000000f0: bb89 013c e076 2cbc 04df b8bc 8e6f ce3c
00000100: b34c bb3c 956e 56bc 7549 ee3c c432 4d3d
00000110: 74b2 133d 0be7 e53b d844 0cbb 9f43 5d3d
00000120: 60fb 84bc 0000 0000 1687 da3c e7b4 40bc
00000130: 0000 0000 479b 1dbc bf09 4b3b aa9d 293c
00000140: 3ffa 853c 8fc7 3d3c 0000 0000 0000 0000
00000150: 280c 7c3d f0e6 f83c 0404 2d3b 8d4c 1e3d
00000160: 9d4e 623d eed5 533d 8086 323b 0000 0000
00000170: 0000 0000 24b2 813c 202e 1bbb acaa 4b3d
00000180: 1b73 06bc 53c7 743d 0000 0000 4453 15bd
00000190: 5093 293d 2711 a5bc 822c 923d 9563 1e3d
000001a0: 7f74 bd3c facd 243d 1997 183c f0c7 c4bb
000001b0: 0000 0000 ba15 d53c 0000 0000 0000 0000
000001c0: 0ef0 46bc 0000 0000 53ea 613d 0f1f 7d3c
000001d0: 8330 69bc 49e2 14bb a0f0 813d 0f33 36bb
000001e0: 7b78 88bc 0dc5 55bb 9199 8d3d 5dd2 6f3d
000001f0: 5a8d a93d 9e13 413d d86a 673d 0000 0000

model/dense_2/BiasAdd/ReadVariableOp f4 [8]
-0.027749708 0.03002822 0.017570067 -0.21872573 0.10933899 0.0059212646 -0.0016796709 -0.020347476
00000000: 5b53 e3bc befd f53c 1aef 8f3c a3f9 5fbe
00000010: 1fed df3d 2b07 c23b 6728 dcba c0af a6bc

model/dense_1/BiasAdd/ReadVariableOp f4 [64]
0.06455804 0.19327088 0.076366395 0.13890713 0.010258039 0.05485058 0.118214086 0.025148112
0.025402661 0.06105989 -0.013594458 0.1977995 0.080160454 0.044983268 0.15589662 0.028547175
0.0036337618 0.022570297 0.19628279 0.069462866 -0.049048692 0.054505702 0.06674998 0.0042556007
0.08431699 0.18017186 -0.095253445 0.07670856 0.021664424 0.18447915 0.3246437 0.06997963
0.07758251 0.020206846 0.08110105 0.08322398 0.05708771 0.09196795 -0.12261611 0.21602648
0.042555146 0.038928054 0.17547365 -0.0012374413 0.042729665 0.07593628 0.12671109 0.07997494
0.1820376 0.02146195 0.05027543 0.060171973 0.12508246 0.07725833 0.15067495 -0.03301922
0.09625118 0.068186276 0.18447699 0.119384356 0.104605585 0.20566297 0.14790875 0.19546054
00000000: 0137 843d cde8 453e fc65 9c3d ac3d 0e3e
00000010: 5611 283c 00ab 603d 3a1a f23d 6a03 ce3c
00000020: 3e19 d03c ef19 7a3d 4abb 5ebc f48b 4a3e
00000030: 2a2b a43d 6040 383d 5da3 1f3e c4db e93c
00000040: 6824 6e3b 58e5 b83c 5bfe 483e 8c42 8e3d
00000050: 48e7 48bd 5f41 5f3d 37b4 883d 9172 8b3b
00000060: 63ae ac3d f97e 383e 3d14 c3bd 6119 9d3d
00000070: 9779 b13c 1ae8 3c3e b337 a63e 7b51 8f3d
00000080: 94e3 9e3d d488 a53c 4f18 a63d 5671 aa3d
00000090: cdd4 693d b159 bc3d 281e fbbd 0c36 5d3e
000000a0: 4e4e 2e3d 0673 1f3d 5daf 333e a431 a2ba
000000b0: 4d05 2f3d 7b84 9b3d 8dc0 013e e7c9 a33d
000000c0: 1168 3a3e f9d0 af3c 9ced 4d3d e376 763d
000000d0: 9e15 003e 9e39 9e3d 894a 1a3e 293f 07bd
000000e0: 571f c53d 3fa5 8b3d 89e7 3c3e c97f f43d
000000f0: 743b d63d 5099 523e 6475 173e cf26 483e

model/dense/MatMul i1 [128, 34] scale=0.008192086 zero_point=0
-0.27853093 0.10649712 -0.024576258 0.286723 -0.37683594 0.09011294 -0.3522597 0.081920855
-0.18022588 0.13926546 -0.49152514 -0.10649712 -0.41779637 0.26214674 -0.14745754 -0.032768343
-0.19661006 0.19661006 0.49152514 0.23757048 0.47514096 0.26214674 0.10649712 0.16384171
-0.18022588 0.07372877 0.09011294 0.22118631 -0.040960427 -0.0573446 0.008192086 -0.008192086
0.016384171 0.14745754 0.065536685 -0.09830503 -0.1720338 -0.10649712 -0.09011294 0.065536685
-0.024576258 0.15564963 0.065536685 0.18022588 -0.15564963 0.0 0.07372877 -0.032768343
0.18022588 0.0573446 0.081920855 -0.07372877 -0.15564963 -0.10649712 0.081920855 0.1720338
-0.1146892 -0.040960427 -0.09830503 0.13107337 -0.065536685 -0.09830503 0.10649712 -0.008192086
-0.14745754 -0.14745754 0.13107337 -0.13107337 0.0573446 -0.18841797 0.081920855 -0.13107337
0.32768342 -0.18841797 0.40960428 0.040960427 0.44237262 0.13107337 0.5161014 0.008192086
0.5079093 -0.14745754 0.07372877 -0.09830503 0.55706185 -0.13107337 0.4587568 0.39322013
0.4505647 0.32768342 -0.18022588 0.09830503 0.09830503 -0.25395465 0.0 -0.13107337
0.0 0.07372877 0.09830503 -0.024576258 -0.0573446 0.18841797 -0.5079093 0.040960427
-0.32768342 -0.032768343 -0.16384171 0.18841797 -0.43418053 0.081920855 -0.38502803 0.065536685
-0.573446 -0.008192086 -0.4014122 -0.14745754 -0.0573446 -0.22118631 -0.0573446 0.09830503
0.66355896 0.4505647 0.3522597 0.4587568 0.1146892 -0.18022588 -0.016384171 0.14745754
0.43418053 -0.049152516 -0.10649712 0.15564963 0.18022588 -0.09830503 0.07372877 0.008192086
0.024576258 -0.049152516 0.122881286 0.081920855 0.07372877 0.040960427 0.15564963 0.18022588
0.024576258 -0.18022588 0.081920855 -0.032768343 0.15564963 0.1146892 -0.065536685 -0.13107337
0.049152516 0.10649712 -0.13107337 0.1720338 0.13926546 0.15564963 -0.040960427 0.14745754
-0.07372877 0.14745754 -0.0573446 0.18841797 0.0573446 0.032768343 0.008192086 0.024576258
0.16384171 -0.14745754 0.18022588 -0.15564963 0.32768342 -0.18022588 0.37683594 -0.10649712
0.38502803 -0.081920855 0.22118631 -0.09011294 0.38502803 -0.0573446 0.55706185 0.0
0.1720338 0.18841797 0.6799431 -0.10649712 0.24576257 0.032768343 0.26214674 0.10649712
-0.07372877 0.032768343 0.1146892 0.1720338 -0.1720338 -0.008192086 0.016384171 -0.032768343
0.09830503 -0.008192086 -0.032768343 -0.1146892 0.13107337 -0.1720338 0.36045176 0.040960427
0.081920855 -0.049152516 0.31949133 -0.13926546 0.32768342 -0.040960427 0.3358755 -0.18022588
0.38502803 -0.18841797 0.13107337 -0.09011294 0.016384171 0.008192086 -0.18022588 -0.008192086
-0.18841797 -0.21299423 -0.081920855 -0.024576258 0.29491508 0.040960427 -0.3358755 0.016384171
-0.14745754 0.13926546 0.040960427 0.13107337 -0.0573446 -0.065536685 -0.081920855 0.13926546
-0.122881286 -0.16384171 -0.14745754 0.20480214 0.122881286 0.21299423 -0.07372877 0.16384171
-0.15564963 0.1720338 0.09830503 -0.14745754 -0.024576258 -0.008192086 -0.13926546 0.18022588
00000000: de0d fd23 d20b d50a ea11 c4f3 cd20 eefc
00000010: e818 3c1d 3a20 0d14 ea09 0b1b fbf9 01ff
00000020: 0212 08f4 ebf3 f508 fd13 0816 ed00 09fc
00000030: 1607 0af7 edf3 0a15 f2fb f410 f8f4 0dff
00000040: eeee 10f0 07e9 0af0 28e9 3205 3610 3f01
00000050: 3eee 09f4 44f0 3830 3728 ea0c 0ce1 00f0
00000060: 0009 0cfd f917 c205 d8fc ec17 cb0a d108
00000070: baff cfee f9e5 f90c 5137 2b38 0eea fe12
00000080: 35fa f313 16f4 0901 03fa 0f0a 0905 1316
00000090: 03ea 0afc 130e f8f0 060d f015 1113 fb12
000000a0: f712 f917 0704 0103 14ee 16ed 28ea 2ef3
000000b0: 2ff6 1bf5 2ff9 4400 1517 53f3 1e04 200d
000000c0: f704 0e15 ebff 02fc 0cff fcf2 10eb 2c05
000000d0: 0afa 27ef 28fb 29ea 2fe9 10f5 0201 eaff
000000e0: e9e6 f6fd 2405 d702 ee11 0510 f9f8 f611
000000f0: f1ec ee19 0f1a f714 ed15 0cee fdff ef16

model/dense_1/MatMul i1 [64, 128] scale=0.0066817673 zero_point=0
0.487769 0.12027181 -0.23386185 0.08018121 -0.12027181 -0.16704418 -0.060135905 0.16704418
0.44767842 -0.060135905 0.50113255 -0.10022651 -0.11359005 0.11359005 0.10690828 0.16036242
-0.060135905 0.18708949 0.4075878 0.47440547 -0.07349944 0.02672707 0.11359005 0.12695357
0.0 0.07349944 0.08018121 0.13363534 0.060135905 0.37417898 -0.060135905 -0.10690828
0.020045303 -0.086862974 -0.12695357 -0.05345414 0.35413367 -0.033408836 -0.14031711 -0.093544744
-0.086862974 0.17372595 -0.14031711 0.16704418 0.0066817673 0.31404307 0.42095134 -0.19377126
0.060135905 -0.20713478 -0.020045303 0.0 0.12695357 0.0 0.19377126 -0.18040772
-0.34077013 -0.11359005 0.13363534 -0.15368065 0.24722539 0.02672707 0.06681767 -0.2271801
-0.2605889 0.20713478 -0.10690828 0.34077013 0.41426957 0.033408836 0.020045303 -0.06681767
0.08018121 0.13363534 0.10022651 -0.13363534 0.033408836 0.013363535 0.16036242 -0.11359005
-0.12027181 -0.37417898 0.12695357 -0.14031711 -0.3474519 0.0 0.40090603 -0.08018121
0.06681767 -0.14031711 0.020045303 0.12695357 -0.06681767 -0.093544744 -0.07349944 -0.24054362
0.14699888 0.05345414 0.093544744 0.10690828 0.3073613 0.0 0.0066817673 0.29399776
0.41426957 0.12695357 -0.046772372 0.16704418 -0.14031711 -0.25390714 0.12695357 0.10022651
-0.13363534 0.02672707 -0.18040772 0.06681767 -0.05345414 0.10022651 0.10022651 0.08018121
-0.15368065 0.16036242 -0.0066817673 0.21381655 0.5813137 -0.26727068 -0.0066817673 0.046772372
-0.13363534 0.046772372 0.12695357 -0.086862974 -0.020045303 0.18708949 0.33408836 -0.16036242
0.13363534 0.040090606 0.0 0.48108724 0.19377126 -0.08018121 -0.060135905 0.14699888
-0.02672707 -0.11359005 0.12695357 -0.10022651 0.086862974 -0.14699888 -0.14699888 -0.060135905
-0.08018121 -0.12695357 -0.086862974 -0.086862974 -0.05345414 0.25390714 -0.12027181 0.18040772
0.08018121 0.20045301 0.093544744 0.17372595 0.10022651 0.11359005 0.07349944 0.14699888
-0.086862974 -0.060135905 -0.14031711 -0.16704418 0.05345414 0.0 -0.013363535 0.4075878
0.18040772 0.10022651 0.0066817673 -0.060135905 0.02672707 -0.05345414 -0.02672707 0.36081544
0.27395245 0.10022651 -0.033408836 0.12695357 -0.10022651 0.18708949 0.18040772 0.013363535
0.16036242 -0.02672707 0.2605889 0.13363534 -0.12027181 0.23386185 0.24054362 0.3073613
0.12027181 0.13363534 0.12695357 0.02672707 -0.0066817673 -0.046772372 0.10022651 -0.013363535
-0.020045303 -0.013363535 -0.05345414 -0.14699888 0.033408836 -0.033408836 -0.093544744 -0.12027181
-0.12695357 0.19377126 0.12027181 0.11359005 0.093544744 -0.033408836 0.16704418 0.26727068
0.16036242 0.060135905 -0.10022651 0.15368065 -0.020045303 0.033408836 0.07349944 -0.093544744
-0.02672707 0.0 -0.013363535 0.040090606 0.02672707 0.10690828 -0.06681767 -0.11359005
0.060135905 0.14699888 0.39422426 -0.18040772 0.12695357 0.0066817673 0.033408836 -0.0066817673
0.033408836 -0.08018121 0.24054362 -0.17372595 0.046772372 0.24722539 0.17372595 0.05345414
00000000: 4912 dd0c eee7 f719 43f7 4bf1 ef11 1018
00000010: f71c 3d47 f504 1113 000b 0c14 0938 f7f0
00000020: 03f3 edf8 35fb ebf2 f31a eb19 012f 3fe3
00000030: 09e1 fd00 1300 1de5 cdef 14e9 2504 0ade
00000040: d91f f033 3e05 03f6 0c14 0fec 0502 18ef
00000050: eec8 13eb cc00 3cf4 0aeb 0313 f6f2 f5dc
00000060: 1608 0e10 2e00 012c 3e13 f919 ebda 130f
00000070: ec04 e50a f80f 0f0c e918 ff20 57d8 ff07
00000080: ec07 13f3 fd1c 32e8 1406 0048 1df4 f716
00000090: fcef 13f1 0dea eaf7 f4ed f3f3 f826 ee1b
000000a0: 0c1e 0e1a 0f11 0b16 f3f7 ebe7 0800 fe3d
000000b0: 1b0f 01f7 04f8 fc36 290f fb13 f11c 1b02
000000c0: 18fc 2714 ee23 242e 1214 1304 fff9 0ffe
000000d0: fdfe f8ea 05fb f2ee ed1d 1211 0efb 1928
000000e0: 1809 f117 fd05 0bf2 fc00 fe06 0410 f6ef
000000f0: 0916 3be5 1301 05ff 05f4 24e6 0725 1a08
