running-moniter/app/src/main/assets/run_classifier.tflite (tflite, 28280 bytes, 6 tensors)

model/dense_2/MatMul f4 [8, 64]
0	0x3dfbd497	0.12296408
1	0x3dbf09fc	0.09328076
2	0x3e8930a7	0.2679493
3	0xbf53f6e1	-0.8279858
4	0xbdbe4910	-0.09291279
5	0xbf8d1852	-1.1023047
6	0xbf861034	-1.0473695
7	0xbf02024a	-0.5078474
8	0x3dc98e52	0.098415986
9	0x3d39344b	0.045215886
10	0xbf8f59fb	-1.1199335
11	0xbe068468	-0.13136446
12	0x3eb177fe	0.3466186
13	0x3e8ef0a7	0.27917978
14	0xbe21164a	-0.15731159
15	0x3eb098a2	0.3449145
16	0x3e330f0b	0.17486207
17	0xbe91405b	-0.28369412
18	0xbee21e47	-0.44163725
19	0x3e9b669c	0.30351722
20	0x3edc1ec0	0.4299221
21	0x3e3079b6	0.17233929
22	0xbe1073d3	-0.14106683
23	0xbf4a366f	-0.7898931
24	0x3f3bbd90	0.73336124
25	0xbef73e8a	-0.482899
26	0x3e60fd83	0.21971707
27	0x3e207a89	0.15671743
28	0xbef2c2e6	-0.4741432
29	0xbda65f3a	-0.08123632
30	0xbf7ba0fb	-0.9829251
31	0x3ed91cdd	0.42404833
32	0xbf5d602b	-0.86474866
33	0x3d3799ae	0.044824295
34	0xbecaface	-0.39644474
35	0xbeffd508	-0.49967217
36	0xbeb5b456	-0.35489148
37	0xbedf2553	-0.43583164
38	0xbf72a724	-0.94786286
39	0x3ee5c509	0.44876888
40	0x3e90b0a8	0.28259778
41	0xbecfd97b	-0.40595612
42	0xbf07835b	-0.5293481
43	0x3e8a71e8	0.2704003
44	0x3ea270c5	0.3172666
45	0x3e26efeb	0.16302459
46	0x3e772ca7	0.24138127
47	0x3eab118f	0.33411834
48	0xbeb67a22	-0.35640055
49	0xbf016d23	-0.50557154
50	0xbf8336e8	-1.0251131
51	0x3e5b0547	0.21388732
52	0x3e495ecc	0.19665068
53	0x3e8c4398	0.2739532
54	0x3dbb6d21	0.09151674
55	0x3f00aecf	0.50266737
56	0x3df5eb28	0.12007743
57	0x3e8fa7b5	0.28057638
58	0xbe1a06db	-0.15041678
59	0xbf35b809	-0.7098394
60	0xbd992297	-0.074773006
61	0xbee469be	-0.44611925
62	0xbeca4970	-0.39509153
63	0xbdd5b97b	-0.10435768
64	0x3ea48d15	0.32138887
65	0x3df1e59c	0.11811373
66	0x3eab60f3	0.33472404
67	0xbd545534	-0.05183907
68	0xbf09661c	-0.5367143
69	0x3e67f944	0.22653681
70	0x3e867c51	0.2626672
71	0x3e046cca	0.12932125
72	0xbf466790	-0.77501774
73	0xbf4a5433	-0.7903473
74	0x3eb3def6	0.35131043
75	0x3e9b8d74	0.30381358
76	0xbf57aefb	-0.84251374
77	0x3e2e118b	0.1699888
78	0xbdcdac68	-0.100426495
79	0xbdd73de0	-0.105098486
80	0x3dd15ad9	0.10222406
81	0xbce68576	-0.028139811
82	0xbf43873d	-0.7637823
83	0x3e6eb286	0.23310289
84	0xbf3c6ed6	-0.7360662
85	0xbf2aa21f	-0.6665363
86	0x3e6b1ed1	0.22960974
87	0xbf08bb3e	-0.5341071
88	0xbf1a4b9c	-0.6027162
89	0x3eefff05	0.46874252
90	0xbf6c11c4	-0.9221461
91	0xbfa45f16	-1.2841518
92	0xbd26ae10	-0.040693343
93	0xbdb8503d	-0.08999679
94	0x3e833630	0.2562728
95	0xbd91233f	-0.07086801
96	0xbf872703	-1.055878
97	0xbc424491	-0.011857168
98	0xbe96d6ac	-0.29460657
99	0xbd579782	-0.052634723
100	0xbde74526	-0.11292486
101	0x3e943f8a	0.28954726
102	0xbf657052	-0.8962451
103	0x3ed58331	0.41701654
104	0x3ef129dd	0.47102252
105	0xbf423eb8	-0.7587695
106	0xbf71366c	-0.94223666
107	0x3e82a332	0.25515133
108	0x3ec10cc6	0.37705058
109	0x3e173356	0.14765677
110	0xbf90a467	-1.1300172
111	0xbd9e24ca	-0.07721861
112	0xbf0a6d69	-0.54073197
113	0xbcb5a8d4	-0.02217523
114	0xbf61cd58	-0.88203955
115	0x3eb0452c	0.34427774
116	0x3e5fe3df	0.2186427
117	0xbee7c401	-0.45266727
118	0x3d25d2b7	0.040484156
119	0xbe480279	-0.19532193
120	0xbf81c89e	-1.0139349
121	0x3eab19cf	0.33418128
122	0xbf799c28	-0.975039
123	0xbebb44df	-0.36575982
124	0x3e0eee43	0.13958077
125	0xbee13a1a	-0.4398964
126	0x3c936ae8	0.017995313
127	0xbf26f160	-0.6521206
128	0x3e2bbfe2	0.16772416
129	0x3df97e60	0.12182307
130	0x3e4f91fb	0.20270531
131	0xbee8f7c7	-0.4550154
132	0xbd8e3e97	-0.06945532
133	0xbed23424	-0.41055405
134	0xbdeadc49	-0.11467797
135	0x3c32cf33	0.010913658
136	0x3d5724e9	0.052525435
137	0xbf3a0049	-0.72656685
138	0x3df7bfe3	0.12097146
139	0xbd3accf4	-0.045605615
140	0x3e768a97	0.24076305
141	0x3cd249ca	0.025669951
142	0xbe57b89f	-0.21066521
143	0x3e558d24	0.20854622
144	0xbdb63c50	-0.088982224
145	0x3dfbe2d2	0.12299122
146	0xbf335d01	-0.7006379
147	0xbcf9cbee	-0.030492749
148	0x3d38c066	0.04510536
149	0x3e1a0330	0.15040278
150	0xbed10c06	-0.40829486
151	0x3d9f6c88	0.077843726
152	0xbf4aded4	-0.7924626
153	0x3cd268f9	0.02568482
154	0x3da3abf2	0.0799178
155	0xbe356318	-0.17713583
156	0x3e51b9a5	0.20480974
157	0xbdccc502	-0.09998514
158	0x3d8c921d	0.068638064
159	0x3eb3b25c	0.35097015
160	0xbb58ffb9	-0.0033111407
161	0x3e681a65	0.22666319
162	0xbebbab8e	-0.36654323
163	0xbe1c6e3f	-0.1527643
164	0x3dd66b4a	0.104696825
165	0x3df0c5f0	0.117565036
166	0xbe0daf7f	-0.13836478
167	0x3e904ae6	0.28182143
168	0x3ea0d695	0.31413713
169	0xbf17b595	-0.5926145
170	0xbd14d91f	-0.036339875
171	0x3e339275	0.17536338
172	0xbd3b4843	-0.04572321
173	0xbcc89cd6	-0.024488848
174	0x3e2bbc6b	0.16771095
175	0x3ed1a8dd	0.40949145
176	0xbe8b302a	-0.27185184
177	0x3baa3d98	0.005195331
178	0xbe4a2526	-0.19740734
179	0x3e837919	0.25678328
180	0x3e0742c3	0.13209061
181	0xbecdd0b0	-0.40198278
182	0xbc95ff90	-0.018310338
183	0xbf260878	-0.6485667
184	0x3db0bf23	0.086302064
185	0x3e288036	0.16455159
186	0x3e66112e	0.22467491
187	0x3dcce537	0.10004657
188	0x3d853d31	0.06505812
189	0xbf460678	-0.7735362
190	0x3da843e5	0.08216075
191	0xbf0860e8	-0.5327287
192	0x3eb0c242	0.34523207
193	0xbdbd3906	-0.09239392
194	0x3eae1ccf	0.34006354
195	0xbf5179ca	-0.8182646
196	0xbd6507fc	-0.055915818
197	0x3e41b89f	0.18918084
198	0xbf530e4e	-0.824437
199	0x3e2bebb6	0.16789135
200	0xbf92fa8c	-1.1482711
201	0xbf1396e8	-0.5765214
202	0xbe316594	-0.17323905
203	0x3eb284aa	0.3486684
204	0xbf4b5fec	-0.7944324
205	0x3e8919b7	0.2677743
206	0xbdc3fd64	-0.09569815
207	0xbc93dd24	-0.018049784
208	0x3e411d41	0.18858816
209	0xbfd7c81a	-1.6857941
210	0x3ee5f9bc	0.44917095
211	0x3eaca23b	0.33717522
212	0xbf3f528b	-0.74735326
213	0xbf8fba42	-1.1228716
214	0x3def0a80	0.116719246
215	0xbf9a83ba	-1.207145
216	0x3ebad182	0.36487967
217	0x3f076e9d	0.5290316
218	0xbf2547b8	-0.6456256
219	0xbf7517f6	-0.95739686
220	0xbf97d6be	-1.1862409
221	0xbbc18b1d	-0.005906476
222	0xbe3f11d4	-0.18659145
223	0xbf3b16b3	-0.7308151
224	0xbf3af9ba	-0.730373
225	0xbf920e2c	-1.1410575
226	0x3f582da4	0.8444464
227	0xbf2967d4	-0.66174054
228	0xbfd522c2	-1.6651232
229	0x3e81ff30	0.25390005
230	0xbf2976d6	-0.66196954
231	0x3f02dafb	0.5111539
232	0x3f010f8d	0.50414354
233	0xbe82fb52	-0.25582367
234	0xbf72bd76	-0.94820344
235	0x3e9c2e22	0.30503947
236	0x3efe2a20	0.49641514
237	0x3e65d557	0.22444664
238	0xbf779804	-0.9671633
239	0xbeba6258	-0.36403155
240	0x3f66ad67	0.9010834
241	0xbfc8158a	-1.5631573
242	0xbf0dc3f2	-0.55377114
243	0x3e9dc7b9	0.3081644
244	0x3e7f8ce8	0.24956095
245	0xbf33d926	-0.7025322
246	0x3d5b14d0	0.053486645
247	0x3f157efc	0.5839689
248	0xbea46724	-0.3210994
249	0x3eb6c2bb	0.35695443
250	0xbf4b9e55	-0.7953847
251	0xbf7040b1	-0.9384871
252	0x3e033951	0.12814833
253	0xbd863a91	-0.065541394
254	0xbfc451fa	-1.5337517
255	0xbf38cbb9	-0.72185856

model/dense/BiasAdd/ReadVariableOp f4 [128]
0	0x3d74f4fb	0.059803944
1	0x3cb4db4c	0.022077225
2	0xbc3f342a	-0.011670152
3	0xbcb4cc95	-0.022070209
4	0xbc7d6d10	-0.015467897
5	0xbcbf2f07	-0.023337854
6	0xbd90ec0a	-0.07076271
7	0x3d288ca5	0.041149754
8	0x00000000	0.0
9	0x00000000	0.0
10	0xba6f771a	-0.0009134874
11	0xba24ac5f	-0.0006281789
12	0xbbd10600	-0.006378889
13	0xbc4e9d9d	-0.01261082
14	0x00000000	0.0
15	0xbc84b625	-0.016200135
16	0xbbd021f3	-0.0063517033
17	0x3c20913b	0.009800251
18	0xbc9c5617	-0.01908402
19	0xbae2a93b	-0.0017292866
20	0x3d0756a6	0.03304162
21	0xb95b0839	-0.0002088853
22	0xbd1e9011	-0.03871161
23	0x3c858853	0.016300356
24	0xba93c084	-0.0011272584
25	0x3be005dc	0.006836636
26	0x3c7839db	0.015150513
27	0xbd0520e9	-0.03250209
28	0x3c12e6fd	0.008966205
29	0xbcf82c50	-0.030294567
30	0x3c000423	0.007813486
31	0x3c08a5ea	0.008340338
32	0x3ce5ec7d	0.028066868
33	0xbb106982	-0.0022035544
34	0x3ce3de13	0.027815854
35	0xbb5df23c	-0.0033866307
36	0xbb0dcd8a	-0.0021637403
37	0xbd64a63e	-0.055822603
38	0xbc5962c6	-0.013268178
39	0xbcb2cb1b	-0.021825364
40	0xbbc13bf9	-0.005897042
41	0x3c6ef7bf	0.014585434
42	0xbd850ff0	-0.064971805
43	0x3ce1df02	0.027572159
44	0xbcde1cf7	-0.02711342
45	0xbc44691c	-0.011987951
46	0xbc7bdc00	-0.015372276
47	0xbcd43cc0	-0.025907874
48	0xbd634326	-0.05548396
49	0x3c2a3c3f	0.01039034
50	0xbd149431	-0.03627414
51	0xbcfb7173	-0.030693745
52	0x3c97a88a	0.018512983
53	0x3d17da24	0.03707327
54	0xbbc4c0e8	-0.0060044415
55	0x3c89bddf	0.01681417
56	0x3bffb580	0.007803619
57	0xbae568bc	-0.0017502527
58	0xbdad987b	-0.08476349
59	0xbc1d1fd1	-0.009590105
60	0x00000000	0.0
61	0x3a849605	0.001011551
62	0xbcbb2f49	-0.022849696
63	0xbbb61dcf	-0.0055577527
64	0xbcaf797f	-0.021420239
65	0x00000000	0.0
66	0x3d2813e3	0.04103459
67	0x3b9fcc52	0.004876652
68	0x00000000	0.0
69	0xbbc1c222	-0.005913035
70	0x00000000	0.0
71	0x3cce2e81	0.02516866
72	0x3bf8a6e2	0.0075882534
73	0x3b69738f	0.0035621857
74	0xbb9dd215	-0.0048163035
75	0x3d1920cc	0.037384793
76	0xbbbf6771	-0.0058411886
77	0xbbab43c3	-0.0052265837
78	0xbc65514a	-0.013996432
79	0x3bc62755	0.006047169
80	0x3cc9df8b	0.024642726
81	0xbbe35751	-0.006937899
82	0xbb468b4d	-0.0030295432
83	0xbd3aa472	-0.045566984
84	0xbcaaee0d	-0.020865465
85	0xbcbb9b37	-0.02290116
86	0x3c9df457	0.01928155
87	0xbd7c17af	-0.061546024
88	0xb9e6097f	-0.00043876094
89	0xbd0ab03c	-0.033859476
90	0xbd13acb6	-0.03605338
91	0xbc7e2297	-0.015511177
92	0x396acaea	0.0002239157
93	0x3d19b013	0.037521433
94	0x3bcbde98	0.0062216036
95	0x3c4dc425	0.0125589715
96	0xbc826d37	-0.015921218
97	0xbc4aaac2	-0.012369813
98	0x3c966d98	0.018362805
99	0xbd762087	-0.060089614
100	0xb9fccdec	-0.0004821861
101	0x00000000	0.0
102	0xbb17553a	-0.002309157
103	0xbd1d4b3e	-0.038401835
104	0x00000000	0.0
105	0xbc1bb2dd	-0.009503094
106	0x3c27ad98	0.010234259
107	0xbc8a05f6	-0.016848546
108	0x3c8250f3	0.01590774
109	0x3c0d2fd2	0.008617358
110	0xbc14546d	-0.009053332
111	0x00000000	0.0
112	0xbcce4394	-0.025178708
113	0xbd3e84b7	-0.046513285
114	0xbc29e139	-0.010368639
115	0xba46f15b	-0.00075890654
116	0x3b749ad3	0.0037323728
117	0xbce7b6cb	-0.028285405
118	0xbcc78df8	-0.024359688
119	0x3c99a20a	0.018754024
120	0x00000000	0.0
121	0x3c258a09	0.010103711
122	0x3d0a0005	0.033691425
123	0x00000000	0.0
124	0x00000000	0.0
125	0x3ce92610	0.028460532
126	0xbb0f9933	-0.0021911382
127	0x3ca54688	0.020175233

model/dense_2/BiasAdd/ReadVariableOp f4 [8]
0	0xbe81bd4d	-0.25339738
1	0xbdab52c6	-0.08365397
2	0x3d8e0de0	0.0693624
3	0xbed8a8a1	-0.42316154
4	0x3e090022	0.13378957
5	0xbcc2466e	-0.023715224
6	0x3dff904b	0.124786936
7	0x3de6dc81	0.112725265

model/dense_1/BiasAdd/ReadVariableOp f4 [64]
0	0xbd0178d6	-0.03160938
1	0xbd6eb1c2	-0.05827499
2	0xbd780434	-0.060550883
3	0x3d12c813	0.035835337
4	0x3d952d78	0.07284063
5	0x3cb04fa4	0.02152235
6	0x3dd8788a	0.10569866
7	0x3d6be089	0.05758718
8	0x3e95d0d1	0.29260877
9	0x3e1773bf	0.14790247
10	0x3da0a29c	0.07843515
11	0xbd409b7b	-0.047023278
12	0x3db2aea5	0.08724717
13	0x3ddda1c2	0.108218685
14	0xbd81606f	-0.063172214
15	0x3e105ee1	0.14098693
16	0x3dbfb1bd	0.09360073
17	0x3eb3d284	0.35121548
18	0xbe138a0d	-0.14408131
19	0x3d7ae458	0.06125292
20	0x3e35f3b0	0.1776874
21	0x3e632092	0.22180393
22	0x3cc5c007	0.024139417
23	0x3e4f42ea	0.2024037
24	0xbd7b6a34	-0.06138058
25	0xbd2273ab	-0.03966109
26	0x3e4f5761	0.20248176
27	0x3e2a83b7	0.16651808
28	0x3ec533a2	0.38515955
29	0x3d8438d9	0.06456155
30	0x3d908a08	0.07057577
31	0x3cc3ac6f	0.023885934
32	0x3ec2e2d2	0.38063675
33	0x3de4cda0	0.11172032
34	0xbe2ef407	-0.17085277
35	0x3d9dc579	0.077036805
36	0x3e912fc8	0.28356767
37	0x3d2e7656	0.042593323
38	0x3e85752c	0.26065958
39	0xbe05d2fc	-0.13068765
40	0xbd11b5d9	-0.035573814
41	0x3e09f7cc	0.13473433
42	0x3ebc9fcf	0.36840674
43	0x3d9b25a1	0.075755365
44	0xbd6edfaa	-0.05831877
45	0x3df80d49	0.12111909
46	0x3e89af1c	0.2689141
47	0x3d843e80	0.064572334
48	0xbe4d35f3	-0.20040111
49	0x3ea25373	0.31704292
50	0x3e1e9f8d	0.15490551
51	0xbc250ce1	-0.010073871
52	0x3db7bbb7	0.08971351
53	0x3de84381	0.11341
54	0x3df86a8d	0.12129698
55	0xbd2b8a29	-0.041879807
56	0x3e85fbe0	0.26168728
57	0xbd8da6b6	-0.06916563
58	0x3e35d249	0.17755999
59	0x3e1ecf09	0.15508665
60	0xbd2f4c4a	-0.042797364
61	0x3e2e0e05	0.16997536
62	0x3eb172cd	0.346579
63	0x3e220fc9	0.15826334

model/dense/MatMul i1 [128, 34] scale=0.01094484 zero_point=0
0	0x1b	0.29551068
1	0x11	0.18606228
2	0x2c	0.48157293
3	0x03	0.03283452
4	0x27	0.42684874
5	0x01	0.01094484
6	0x1d	0.31740034
7	0x04	0.04377936
8	0x33	0.5581868
9	0x14	0.21889679
10	0x0d	0.14228292
11	0x0e	0.15322775
12	0x36	0.59102136
13	0x12	0.19700712
14	0xfd	-0.03283452
15	0x06	0.06566904
16	0x36	0.59102136
17	0x09	0.09850356
18	0xbf	-0.7114146
19	0xf2	-0.15322775
20	0xb0	-0.87558717
21	0xef	-0.18606228
22	0xe5	-0.29551068
23	0xfb	-0.054724198
24	0x16	0.24078646
25	0x16	0.24078646
26	0x00	0.0
27	0x06	0.06566904
28	0xfe	-0.02188968
29	0xf9	-0.07661387
30	0xfc	-0.04377936
31	0x05	0.054724198
32	0xda	-0.4159039
33	0x06	0.06566904
34	0x3f	0.6895249
35	0x17	0.2517313
36	0x33	0.5581868
37	0x07	0.07661387
38	0x33	0.5581868
39	0x10	0.17511743
40	0x30	0.5253523
41	0x0a	0.109448396
42	0x2e	0.5034626
43	0x0e	0.15322775
44	0x3a	0.6348007
45	0x17	0.2517313
46	0x2c	0.48157293
47	0xfc	-0.04377936
48	0x0f	0.16417259
49	0x0e	0.15322775
50	0xfe	-0.02188968
51	0x01	0.01094484
52	0x18	0.26267615
53	0xf9	-0.07661387
54	0x06	0.06566904
55	0xde	-0.37212455
56	0x00	0.0
57	0xec	-0.21889679
58	0xfe	-0.02188968
59	0x0b	0.12039323
60	0xfc	-0.04377936
61	0x0f	0.16417259
62	0x02	0.02188968
63	0x00	0.0
64	0xfa	-0.06566904
65	0x14	0.21889679
66	0xfa	-0.06566904
67	0x01	0.01094484
68	0x04	0.04377936
69	0x0c	0.13133807
70	0x07	0.07661387
71	0xfb	-0.054724198
72	0xf5	-0.12039323
73	0xf1	-0.16417259
74	0xf4	-0.13133807
75	0x0f	0.16417259
76	0x0f	0.16417259
77	0x02	0.02188968
78	0xfc	-0.04377936
79	0x01	0.01094484
80	0x04	0.04377936
81	0xff	-0.01094484
82	0xff	-0.01094484
83	0x0c	0.13133807
84	0xfd	-0.03283452
85	0xff	-0.01094484
86	0x0f	0.16417259
87	0xf5	-0.12039323
88	0x10	0.17511743
89	0xf0	-0.17511743
90	0x06	0.06566904
91	0x03	0.03283452
92	0xfd	-0.03283452
93	0xf2	-0.15322775
94	0x09	0.09850356
95	0xf4	-0.13133807
96	0xf9	-0.07661387
97	0x03	0.03283452
98	0xff	-0.01094484
99	0xf1	-0.16417259
100	0x0c	0.13133807
101	0x07	0.07661387
102	0xf3	-0.14228292
103	0xf8	-0.08755872
104	0xfd	-0.03283452
105	0x00	0.0
106	0xfd	-0.03283452
107	0x01	0.01094484
108	0x0b	0.12039323
109	0xed	-0.20795195
110	0x0c	0.13133807
111	0xe9	-0.2517313
112	0xfd	-0.03283452
113	0xf9	-0.07661387
114	0x0c	0.13133807
115	0xe1	-0.33929002
116	0xfa	-0.06566904
117	0x03	0.03283452
118	0xe6	-0.28456584
119	0xfa	-0.06566904
120	0x10	0.17511743
121	0x5c	1.0069252
122	0xf1	-0.16417259
123	0x64	1.094484
124	0xe7	-0.273621
125	0xe4	-0.3064555
126	0x0b	0.12039323
127	0x38	0.612911
128	0x1d	0.31740034
129	0xf3	-0.14228292
130	0xf8	-0.08755872
131	0x01	0.01094484
132	0x04	0.04377936
133	0x11	0.18606228
134	0xfb	-0.054724198
135	0x04	0.04377936
136	0x0c	0.13133807
137	0xf5	-0.12039323
138	0xf6	-0.109448396
139	0x12	0.19700712
140	0x08	0.08755872
141	0xfc	-0.04377936
142	0xfa	-0.06566904
143	0x0a	0.109448396
144	0x06	0.06566904
145	0x12	0.19700712
146	0x06	0.06566904
147	0xfd	-0.03283452
148	0x05	0.054724198
149	0x00	0.0
150	0xfd	-0.03283452
151	0xfb	-0.054724198
152	0x00	0.0
153	0x13	0.20795195
154	0xf6	-0.109448396
155	0x04	0.04377936
156	0x05	0.054724198
157	0x06	0.06566904
158	0xf0	-0.17511743
159	0x04	0.04377936
160	0xf3	-0.14228292
161	0x0c	0.13133807
162	0x05	0.054724198
163	0x0d	0.14228292
164	0xfe	-0.02188968
165	0x0c	0.13133807
166	0xfa	-0.06566904
167	0x0d	0.14228292
168	0x0c	0.13133807
169	0xef	-0.18606228
170	0xd0	-0.5253523
171	0x03	0.03283452
172	0xbd	-0.73330426
173	0xfe	-0.02188968
174	0xc8	-0.612911
175	0x06	0.06566904
176	0xdb	-0.40495905
177	0x13	0.20795195
178	0xdb	-0.40495905
179	0x05	0.054724198
180	0xe9	-0.2517313
181	0x0a	0.109448396
182	0xca	-0.59102136
183	0xf9	-0.07661387
184	0x24	0.39401424
185	0x04	0.04377936
186	0x05	0.054724198
187	0x11	0.18606228
188	0xa2	-1.0288149
189	0xdd	-0.3830694
190	0xa2	-1.0288149
191	0xd0	-0.5253523
192	0x28	0.43779358
193	0xb8	-0.7880285
194	0xc9	-0.6019662
195	0x41	0.7114146
196	0x17	0.2517313
197	0xfd	-0.03283452
198	0xf9	-0.07661387
199	0x15	0.22984163
200	0x2e	0.5034626
201	0xeb	-0.22984163
202	0x26	0.4159039
203	0xf7	-0.09850356
204	0x04	0.04377936
205	0xf7	-0.09850356
206	0x11	0.18606228
207	0xef	-0.18606228
208	0xfb	-0.054724198
209	0xf0	-0.17511743
210	0xf7	-0.09850356
211	0xeb	-0.22984163
212	0xf7	-0.09850356
213	0xee	-0.19700712
214	0x10	0.17511743
215	0xed	-0.20795195
216	0x01	0.01094484
217	0x0c	0.13133807
218	0x13	0.20795195
219	0x30	0.5253523
220	0xfa	-0.06566904
221	0x21	0.3611797
222	0xff	-0.01094484
223	0x21	0.3611797
224	0x23	0.3830694
225	0x31	0.53629714
226	0x2f	0.51440746
227	0x3b	0.6457455
228	0xf1	-0.16417259
229	0xd4	-0.48157293
230	0xf3	-0.14228292
231	0x06	0.06566904
232	0x04	0.04377936
233	0x12	0.19700712
234	0xfc	-0.04377936
235	0x13	0.20795195
236	0x0c	0.13133807
237	0x20	0.35023487
238	0x0d	0.14228292
239	0x18	0.26267615
240	0xf1	-0.16417259
241	0x12	0.19700712
242	0x0e	0.15322775
243	0xfe	-0.02188968
244	0x08	0.08755872
245	0x09	0.09850356
246	0xed	-0.20795195
247	0x08	0.08755872
248	0x2a	0.45968327
249	0x1c	0.3064555
250	0xdf	-0.3611797
251	0x20	0.35023487
252	0xec	-0.21889679
253	0x09	0.09850356
254	0x0a	0.109448396
255	0x12	0.19700712

model/dense_1/MatMul i1 [64, 128] scale=0.0094382 zero_point=0
0	0x1f	0.2925842
1	0x4a	0.6984268
2	0xf8	-0.0755056
3	0xfb	-0.047191
4	0x00	0.0
5	0x40	0.6040448
6	0xff	-0.0094382
7	0x2c	0.4152808
8	0x0d	0.1226966
9	0x07	0.0660674
10	0xfe	-0.0188764
11	0xfd	-0.0283146
12	0x38	0.5285392
13	0xfb	-0.047191
14	0xf5	-0.1038202
15	0xfb	-0.047191
16	0x03	0.0283146
17	0x5a	0.849438
18	0x01	0.0094382
19	0x4d	0.7267414
20	0xfb	-0.047191
21	0x59	0.8399998
22	0xff	-0.0094382
23	0x47	0.6701122
24	0x1e	0.283146
25	0x09	0.0849438
26	0xf1	-0.141573
27	0x01	0.0094382
28	0x2f	0.4435954
29	0x04	0.0377528
30	0x36	0.5096628
31	0x06	0.0566292
32	0x03	0.0283146
33	0x11	0.1604494
34	0x35	0.5002246
35	0x12	0.1698876
36	0x03	0.0283146
37	0xfb	-0.047191
38	0x00	0.0
39	0x08	0.0755056
40	0xfd	-0.0283146
41	0xf2	-0.1321348
42	0xfe	-0.0188764
43	0x0e	0.1321348
44	0x01	0.0094382
45	0xf0	-0.1510112
46	0x36	0.5096628
47	0xf9	-0.0660674
48	0xf9	-0.0660674
49	0x4d	0.7267414
50	0x03	0.0283146
51	0xff	-0.0094382
52	0xe2	-0.283146
53	0x03	0.0283146
54	0x12	0.1698876
55	0x56	0.8116852
56	0x59	0.8399998
57	0x0b	0.1038202
58	0xf7	-0.0849438
59	0x00	0.0
60	0x03	0.0283146
61	0x08	0.0755056
62	0x02	0.0188764
63	0xfc	-0.0377528
64	0xf7	-0.0849438
65	0x09	0.0849438
66	0xfe	-0.0188764
67	0xef	-0.1604494
68	0xff	-0.0094382
69	0x00	0.0
70	0x05	0.047191
71	0x56	0.8116852
72	0x45	0.6512358
73	0x37	0.519101
74	0x06	0.0566292
75	0xff	-0.0094382
76	0xf1	-0.141573
77	0x02	0.0188764
78	0xeb	-0.1982022
79	0x34	0.4907864
80	0x58	0.8305616
81	0x0e	0.1321348
82	0x2c	0.4152808
83	0x03	0.0283146
84	0x00	0.0
85	0x0d	0.1226966
86	0x42	0.62292117
87	0x00	0.0
88	0xfe	-0.0188764
89	0x01	0.0094382
90	0x54	0.7928088
91	0x0b	0.1038202
92	0x02	0.0188764
93	0x12	0.1698876
94	0xfb	-0.047191
95	0x29	0.3869662
96	0x08	0.0755056
97	0x11	0.1604494
98	0x5a	0.849438
99	0xda	-0.3586516
100	0xf1	-0.141573
101	0xfd	-0.0283146
102	0x33	0.4813482
103	0x05	0.047191
104	0x0e	0.1321348
105	0xeb	-0.1982022
106	0x64	0.94382
107	0xef	-0.1604494
108	0x3b	0.5568538
109	0xfc	-0.0377528
110	0x2d	0.424719
111	0x0f	0.141573
112	0x01	0.0094382
113	0x00	0.0
114	0xda	-0.3586516
115	0x42	0.62292117
116	0x4e	0.7361796
117	0xff	-0.0094382
118	0xf9	-0.0660674
119	0x0d	0.1226966
120	0x10	0.1510112
121	0x61	0.9155054
122	0x35	0.5002246
123	0xf7	-0.0849438
124	0xf8	-0.0755056
125	0x38	0.5285392
126	0x41	0.613483
127	0x52	0.7739324
128	0xf0	-0.1510112
129	0xfc	-0.0377528
130	0xfa	-0.0566292
131	0xf7	-0.0849438
132	0xf4	-0.1132584
133	0xf1	-0.141573
134	0xef	-0.1604494
135	0x03	0.0283146
136	0xfb	-0.047191
137	0xfa	-0.0566292
138	0xf3	-0.1226966
139	0xee	-0.1698876
140	0xfc	-0.0377528
141	0xfe	-0.0188764
142	0xff	-0.0094382
143	0xfd	-0.0283146
144	0x05	0.047191
145	0xec	-0.188764
146	0xf4	-0.1132584
147	0xf0	-0.1510112
148	0x0d	0.1226966
149	0xf8	-0.0755056
150	0xfb	-0.047191
151	0x09	0.0849438
152	0x03	0.0283146
153	0x08	0.0755056
154	0xf5	-0.1038202
155	0x01	0.0094382
156	0x06	0.0566292
157	0xf8	-0.0755056
158	0x0a	0.094382
159	0x04	0.0377528
160	0xfb	-0.047191
161	0x07	0.0660674
162	0xf7	-0.0849438
163	0x05	0.047191
164	0x0b	0.1038202
165	0xfc	-0.0377528
166	0xf2	-0.1321348
167	0xf5	-0.1038202
168	0xf6	-0.094382
169	0xee	-0.1698876
170	0xf3	-0.1226966
171	0x00	0.0
172	0x08	0.0755056
173	0xff	-0.0094382
174	0xf3	-0.1226966
175	0xf2	-0.1321348
176	0xf6	-0.094382
177	0xec	-0.188764
178	0x0c	0.1132584
179	0x08	0.0755056
180	0x0a	0.094382
181	0x07	0.0660674
182	0xfb	-0.047191
183	0xf3	-0.1226966
184	0xf4	-0.1132584
185	0x05	0.047191
186	0xee	-0.1698876
187	0xfd	-0.0283146
188	0x13	0.1793258
189	0xef	-0.1604494
190	0x0a	0.094382
191	0xf0	-0.1510112
192	0x08	0.0755056
193	0x08	0.0755056
194	0xf8	-0.0755056
195	0x06	0.0566292
196	0x0f	0.141573
197	0x0f	0.141573
198	0xfa	-0.0566292
199	0xed	-0.1793258
200	0xf6	-0.094382
201	0xf4	-0.1132584
202	0xf1	-0.141573
203	0xe9	-0.2170786
204	0xfa	-0.0566292
205	0x06	0.0566292
206	0xf6	-0.094382
207	0x07	0.0660674
208	0xfa	-0.0566292
209	0xfb	-0.047191
210	0xf9	-0.0660674
211	0xff	-0.0094382
212	0xf1	-0.141573
213	0xfa	-0.0566292
214	0xf0	-0.1510112
215	0xfb	-0.047191
216	0xec	-0.188764
217	0xf3	-0.1226966
218	0x00	0.0
219	0xed	-0.1793258
220	0x0a	0.094382
221	0x02	0.0188764
222	0x03	0.0283146
223	0x00	0.0
224	0x05	0.047191
225	0x02	0.0188764
226	0xfd	-0.0283146
227	0x03	0.0283146
228	0x01	0.0094382
229	0x12	0.1698876
230	0xf6	-0.094382
231	0xfa	-0.0566292
232	0x10	0.1510112
233	0x07	0.0660674
234	0xf9	-0.0660674
235	0xf9	-0.0660674
236	0xf9	-0.0660674
237	0xec	-0.188764
238	0xf6	-0.094382
239	0xff	-0.0094382
240	0xfb	-0.047191
241	0x08	0.0755056
242	0xfe	-0.0188764
243	0x01	0.0094382
244	0xfb	-0.047191
245	0xfd	-0.0283146
246	0xff	-0.0094382
247	0xf5	-0.1038202
248	0xf1	-0.141573
249	0xff	-0.0094382
250	0xf2	-0.1321348
251	0xee	-0.1698876
252	0xf8	-0.0755056
253	0xfc	-0.0377528
254	0x05	0.047191
255	0xf4	-0.1132584
